…
            "X_train shape (60000, 28, 28)\n",
            "y_train shape (60000,)\n",
            "X_test shape (10000, 28, 28)\n",
            "y_test shape (10000,)\n",
            "Training matrix shape (60000, 784)\n",
            "Testing matrix shape (10000, 784)\n",
            "Model: \"sequential\"\n",
            "_________________________________________________________________\n",
            " Layer (type)                Output Shape              Param #   \n",
            "=================================================================\n",
            " dense (Dense)               (None, 512)               401920    \n",
            "                                                                 \n",
            " activation (Activation)     (None, 512)               0         \n",
            "                                                                 \n",
            " dropout (Dropout)           (None, 512)               0         \n",
            "                                                                 \n",
            " dense_1 (Dense)             (None, 512)               262656    \n",
            "                                                                 \n",
            " activation_1 (Activation)   (None, 512)               0         \n",
            "                                                                 \n",
            " dropout_1 (Dropout)         (None, 512)               0         \n",
            "                                                                 \n",
            " dense_2 (Dense)             (None, 10)                5130      \n",
            "                                                                 \n",
            " activation_2 (Activation)   (None, 10)                0         \n",
            "                                                                 \n",
            "=================================================================\n",
            "Total params: 669706 (2.55 MB)\n",
            "Trainable params: 669706 (2.55 MB)\n",
            "Non-trainable params: 0 (0.00 Byte)\n",
            "_________________________________________________________________\n",
…
